models/FNN_Model.pt (torch, 862251 bytes, 4 tensors)

linear_stack.0.weight f4 [710, 300]
00000000: 7ccd 86bd a3ab f43e 0982 753e 9bc1 2abf
00000010: 8182 093e 7753 cfbd e61c 533e 71a2 8cbe
00000020: c6fb cbbf b75e bdbd 63fe 103e 6dcd 9bbb
00000030: e232 91be fe6a aebe 0b95 a8be 7566 963b
00000040: f760 cb3e afcb eabe d2b6 81be d704 65be
00000050: 01a6 223e 747f a73e e88c 7fbd 9f18 9fbb
00000060: 98ad ed3e 3122 72be 79ab 19be a7b2 a73e
00000070: fc88 833e d67e b5bc ccd3 6ebd 84c1 4d3d
00000080: 597a debe 980b 6abe a1da 283e abfd e1bd
00000090: 4cfe aebe a560 1abf b95e ae3c 1925 633f
000000a0: b7f8 013e 2e5d bd3d 6a0c 803e cedc 193f
000000b0: 311b 33bf 210f 87bd d6b5 a13e b500 633f
000000c0: 7184 a83d 2658 003f a4d4 8cbe 5371 24bd
000000d0: ae49 fe3e 7ee3 07bf c007 883e 623a 1bbe
000000e0: c040 21bf 26ea 45be 1140 41be b81b 09bf
000000f0: 5259 f03e bdc7 753f 01e5 bebe 6161 223e
00000100: ea1e efbe f455 e9bd b792 dabe 30c8 4b3f
00000110: d522 94be baab 97be 6e06 91bf c2a5 8abe
00000120: f493 78be 9b89 153d bd71 8abd 2171 1a3d
00000130: b8d9 3cbd 93c7 46bd da38 c03d d9a0 16bf
00000140: 4bb2 fcbc ac52 da3d bd61 f6bd 7011 933e
00000150: 229b 55bf 99c6 b6be a810 a53e 9cad d53d
00000160: 16a0 be3e eaf0 f63e ee59 933d ce2d 9cbe
00000170: a96f 57bd c621 963e e585 b0bd 41f7 12bf
00000180: b6dc dbba de2e 093d 041c 133f 578c e53c
00000190: a44b 563e df82 8bbd e96a 9f3e f18a 3abf
000001a0: 1028 b83e 4f0f 1d3f 98b2 ba3e 3754 3abf
000001b0: f2ba 593f e1c0 3e3d 880d 403f d64e 623f
000001c0: dac3 25be eb1c 6e3e 13b6 57be 1a0e 49bd
000001d0: 6501 283f 79d7 b93e 0c72 1abf fc0a b1bd
000001e0: 2ca2 65bf 601c 18bf 4949 d43e f0ff cdbd
000001f0: 35b5 0e3e 7f4d a4be 86a6 e03d b6e6 4abe
00000200: 377d 57be 4bf4 9f3e f204 a83e b867 5b3e
00000210: ef94 45bf 37fe 3cbe d9ec edbe 7cc6 72bf
00000220: 0c69 ebbd 4a9e 1abf 1f1c fa3d 3e53 15be
00000230: b281 5d3f f5e3 643f fe48 863e c37f 313f
00000240: 9f73 0bbe 17c2 a33e 7420 c7be 831d 8d3f
00000250: d327 46be 94f9 773e ab79 c13e 96a0 3f3e
00000260: 1dec f1bb b3c4 5fbe f464 923e 6722 3a3e
00000270: 0451 e7bd 3c7d 89bd 8ab1 dabe 31a0 2c3e
00000280: b7c8 46be f9be 10bd a7ac 92be b898 2b3f
00000290: 3807 edbd b47b 87bd 90bc 0c3f 7ab6 fa3d
000002a0: f2ad f1be f425 523e 670e 11bf ee39 5dbe
000002b0: 5c2b ac3d 4d01 5fbe 3a9d 90be 4f18 1ebf
000002c0: 0edd f7bd b499 28bf 5ce6 41bf 6725 043f
000002d0: f34c 00be 32e7 963d 6c16 d93d 9043 053f
000002e0: f30d 303e 4aa4 483c 8221 363d 1bbe 803f
000002f0: d666 0b3c 6748 163f 6708 3dbd 9f3a fbbf
00000300: d1da 5f3e 3556 493f d926 bfbe db82 993d
00000310: b7bf 313e 2088 f9be 4288 df3e f006 c53c
00000320: 9738 edbc 80e8 e6be 0ca3 d43d 805b 84bf
00000330: e93b c93b 983a b93e 71c1 6a3e 5858 dcbd
00000340: c309 abbd 76b0 bdbe 49ed ee3e 2628 ae3c
00000350: 52e0 89bd 1995 3ebf 3395 e33e 1746 833e
00000360: b220 c23d ed05 ba3d 9642 07bf c067 5e3f
00000370: 2cc6 e53e be13 92be 472e b53e 5524 0d3e
00000380: c2eb 8bbe 36d4 b23e ec6f 7b3e 8073 6a3d
00000390: e692 2bbe 90cf f63e c9bd a03e 7ca5 95be
000003a0: 3270 b4bd 454b 623e 5ed3 a8bf ed96 fc3c
000003b0: ebe8 18bd 81ee 12bc 449e 10bf 958c c8be
000003c0: c212 35bf 8242 13bf 18fd bcbd 99f1 1b3e
000003d0: 4c05 5d3e 0b6c 153e 6e74 923f 68ec 9bbe
000003e0: 6430 0f3f 8a08 bcbd 1ce8 b3bb 310e b1bb
000003f0: 0845 423e 9858 2c3e fc02 143e 62e1 2dbd
-0.06582162 0.47787198 0.23975386 -0.6670167 0.1342869 -0.101233415 0.20616493 -0.27467683
-1.593621 -0.09246581 0.14159541 -0.0047547133 -0.28359133 -0.34066004 -0.3292621 0.0045898505
0.39722416 -0.45858523 -0.25334793 -0.22365128 0.15883638 0.32714427 -0.062390238 -0.00485523
0.46421504 -0.23645855 -0.15006818 0.32753488 0.25690448 -0.022155207 -0.058307454 0.05023338
-0.4345272 -0.22855985 0.1648965 -0.110347115 -0.34178388 -0.6030372 0.021285402 0.8872848
0.12692533 0.09246288 0.2500947 0.60102546 -0.69963366 -0.065946825 0.31584042 0.88672954
0.08228386 0.50134504 -0.27505982 -0.040147137 0.49665588 -0.530815 0.26568413 -0.1515899
-0.62989426 -0.19327602 -0.18872096 -0.5355792 0.46943146 0.960079 -0.3728409 0.1585746
-0.46703273 -0.113933474 -0.4269006 0.79602337 -0.28932825 -0.29623204 -1.1330087 -0.27079588
-0.2427519 0.036508184 -0.06759975 0.037705544 -0.04610607 -0.048530173 0.093858436 -0.58839184
-0.030846735 0.106603 -0.12030361 0.2872424 -0.8343984 -0.35698393 0.3223927 0.10433504
0.3723151 0.48230678 0.07194887 -0.30503696 -0.05259672 0.29322642 -0.08619288 -0.5740853
-0.0016774151 0.03349196 0.57464623 0.02802102 0.20927292 -0.06812071 0.31136253 -0.7286826
0.35968065 0.61351484 0.3646438 -0.7278475 0.8505088 0.046570662 0.7502065 0.88401544
-0.16187993 0.23253219 -0.2106555 -0.049085714 0.6562713 0.36297205 -0.6033027 -0.08644673
-0.8970058 -0.59418297 0.41462162 -0.10058582 0.13936312 -0.32090375 0.10969262 -0.19814572
-0.2104386 0.31241068 0.32816273 0.21426284 -0.7718038 -0.1845635 -0.46469763 -0.94834113
-0.114946455 -0.6039778 0.12212395 -0.14582536 0.86526024 0.89410335 0.26227564 0.69335574
-0.13618325 0.31984016 -0.38891947 1.1024631 -0.19351129 0.242163 0.37788138 0.18713602
-0.007382883 -0.21852379 0.28592646 0.18177186 -0.112947494 -0.0671334 -0.42713577 0.16857983
-0.19412504 -0.035338376 -0.28647348 0.67029905 -0.115736425 -0.066153914 0.54975224 0.12241836
-0.47203022 0.2052229 -0.566626 -0.2160413 0.08406708 -0.2177784 -0.28244954 -0.6175584
-0.1210271 -0.6585953 -0.75742126 0.5161957 -0.12529354 0.07368316 0.1059998 0.5205622
0.17192821 0.012246201 0.04446555 1.0058016 0.008508405 0.5870423 -0.04615059 -1.9627265
0.21860816 0.78647166 -0.37334326 0.07495662 0.1735829 -0.48736668 0.43658644 0.02405116
-0.028957648 -0.45099258 0.10382661 -1.0340424 0.006141175 0.36177516 0.22925355 -0.10759038
-0.08351471 -0.37048692 0.4666541 0.021259379 -0.06732239 -0.74446255 0.44449767 0.25639412
0.094788924 0.090831615 -0.5283598 0.8687706 0.44877756 -0.28530687 0.3538687 0.13783391
-0.27328306 0.3492753 0.24554414 0.057239056 -0.16755256 0.48205233 0.31394795 -0.29227817
-0.08810462 0.22099026 -1.3189504 0.030833686 -0.037331503 -0.008967997 -0.56491494 -0.39169756
-0.7073175 -0.5752336 -0.09227961 0.15228881 0.21584052 0.14591996 1.1441782 -0.304538
0.55933213 -0.09181316 -0.005490316 -0.005403303 0.18971646 0.16830671 0.14454263 -0.04245127

linear_stack.0.bias f4 [710]
00000000: 6ef6 ad3d 8335 22bd 6a00 55be 970c 0abd
00000010: 75c6 37bc effb c8bd 6628 92bd 773e 193d
00000020: f100 8d3d 210e dbbc e2de 203b d122 83bd
00000030: f081 29bd 7872 c53d 7b10 393d 4a8e fa3b
00000040: 2cbf 49bd 79e1 adbc bd37 ac3d 3bb2 53bd
00000050: 0780 773d 6108 16bd 75bf b6bd 3f00 e3bd
00000060: 0801 493d 2022 403d 4321 82bd 55af 61bd
00000070: 1278 b23d 695b 813d 6c85 7fbd bf15 9fbd
00000080: 1b55 8bbd 6610 3bbe 125c f8bd d4c7 4d3d
00000090: 858a 453c 0085 e2bc cab6 18bd 0450 70bd
000000a0: 5cc8 ac3c 830d fabd 70e3 82bd 2961 a13b
000000b0: 5769 13bd cbd7 463c baa5 8a3b 9ed8 eabd
000000c0: 18e8 77bd fb90 453a 80b8 5ebd 2f85 62bd
000000d0: 4472 72bb 67df dcbb 58dd f5bd e276 2abe
000000e0: 76ed 0bbd 8c63 20bd cff2 b8bd 680a cf3c
000000f0: 8579 91bd e730 77bd 8c0d ed3b 1634 ba3c
00000100: 2b18 183d adb9 163c 361b 1ebd 51ee bb3d
00000110: 86af ccbc 761c 57bd 76e1 b93d ea62 3fbd
00000120: d56b 82bd 3cf4 0b3d 537e 953a 404f 36be
00000130: 6904 2ebd 8a5f 15bd 5c45 43bd 6cf9 2ebd
00000140: 24b6 87bd ad43 163d cc13 b5bc ab6b dbbc
00000150: 574a d4bc d93a 60bc fa86 0bbd 5398 adba
00000160: b20e 71bd 5445 93bd dd74 15bc e4c2 54bd
00000170: eafb 31bd 47b5 1fbd a4a7 9fbd 85a2 11bd
00000180: fe52 e4bc e657 393d 3369 4dbe f2cc 93bd
00000190: c322 abbd f345 d53c 6bd6 16bd a852 9dbc
000001a0: 88f7 153c 7abd 88bd b0d2 783c 7578 d0bc
000001b0: d039 aa3d a8de a23b c789 e2bd 2295 9f3b
000001c0: 2f56 45bc 6b68 bbbd 80f9 f0bc edb1 4bbd
000001d0: 4fdb 3bbd 31f2 6fbc 5136 4dbd 5b4a 8f3b
000001e0: af9d a7bc 4f6e 67bd e40b 50bd cffd 783d
000001f0: 62a0 143c 1ad6 a83d c35b 6cbd 943a 1abe
00000200: c2c9 853b 0374 e73d 247f 473c 02a2 843c
00000210: aeb2 2ebb ab34 16bd c2bf 71bc f2f8 fa3d
00000220: 84b3 2dbc 5d3c 963d aa83 953c bfff f0bc
00000230: 380d c4bc 14db 983d e4b4 22be d1fc d7bc
00000240: 3503 d83b 4a38 59bd 8ce2 933b 6acf c43b
00000250: 0025 383d 0a5c be3d bd35 04ba ff96 3b3d
00000260: 1411 97bd 52f1 d0bb 686e 29bd 6f99 b13c
00000270: c525 33bd 3066 073e 0eda 91bd 053f 803c
00000280: 62e8 7abc 88e8 a0bd 5b79 703d 0872 98bd
00000290: 0393 a6bc 1758 41bd 613d 2a3b 1b05 25be
000002a0: 2ebd ae3d b0ad fcbd 58c8 38bc 129c 153d
000002b0: d03a cebc 804a 9bbd d306 34be ef21 84bc
000002c0: 54b8 54bd 18d2 c3bd 12a9 56bd 5506 603c
000002d0: 95a0 583c 706c b4bd c373 e03b 379b bd3a
000002e0: d513 6bbd 82e0 20be ca33 853c fa12 80bb
000002f0: d74f ffbd 30a3 923c 0926 e93c 19be b4bd
00000300: 413e a63d f3e9 433c a271 86bd 8718 07be
00000310: 3d27 48bd bcb6 483d d722 3fbc e427 d539
00000320: 2728 e5bc 285a d93d 03c2 22bd 6185 d13c
00000330: 95fd 6fbd d139 283d 5246 f7bc cf28 bbbd
00000340: a639 4e3b 11c8 b6bc d193 543d 1457 27bc
00000350: 1adc 713d c80c 963d 92eb 44bd bcf7 34bc
00000360: 1bda 72bd 5090 58be 4137 33bd d832 bfbc
00000370: 1913 19bd e15b 36bd bfaa 183d d1f6 44be
00000380: 0527 48bd 0c4b ad3d d086 e2bc 00cd f7bb
00000390: de6d f2bd 1728 b83d 1ea3 af3d e4df 80bd
000003a0: e65f 863d 2d23 8d3b 92d4 26bc 29ed 1f3d
000003b0: 5d7d d3bc 3759 363c a872 79bd 653b 1b3d
000003c0: c9ab 25bb 1245 cabc 14f4 0a3c d9a7 493b
000003d0: d58b 95bd 5cf1 a1bd e072 963d a742 ff3c
000003e0: 2346 7f3c fc7a f5bd 8180 3cbc 4357 ecbc
000003f0: ea26 7ebd d88b f8bd 9418 f73c b142 d9bc
0.08494268 -0.039601814 -0.20800939 -0.033703413 -0.011216749 -0.098136775 -0.07136612 0.037413087
0.06884945 -0.026740136 0.002454691 -0.06403125 -0.041383684 0.09640974 0.045181733 0.0076463567
-0.04925458 -0.021225678 0.08409069 -0.051683646 0.06042483 -0.036629084 -0.08923236 -0.11084031
0.04907325 0.046907544 -0.063540004 -0.05509885 0.08714308 0.06316263 -0.0623831 -0.077678196
-0.06803342 -0.18267974 -0.12126936 0.0502394 0.012056951 -0.02765131 -0.037283696 -0.05867006
0.021091633 -0.122096084 -0.063910365 0.0049249125 -0.03598913 0.01213641 0.004231182 -0.11467098
-0.060524076 0.00075365574 -0.05437517 -0.055302795 -0.0036994377 -0.006740499 -0.120051086 -0.16646913
-0.034162007 -0.039157435 -0.09030687 0.025273517 -0.07103256 -0.06034937 0.007234281 0.022729915
0.037132423 0.009199542 -0.03860017 0.091763146 -0.02498604 -0.052517377 0.090762064 -0.04672519
-0.063682236 0.034168467 0.0011405445 -0.17803669 -0.042484675 -0.036468066 -0.047673568 -0.042718336
-0.066265374 0.036685634 -0.022104166 -0.026784739 -0.025914354 -0.013685905 -0.03406427 -0.0013244249
-0.058851905 -0.07190958 -0.009122101 -0.051943675 -0.043453135 -0.03899124 -0.07795647 -0.03555538
-0.027871605 0.045249842 -0.20059662 -0.072168246 -0.0835624 0.026034331 -0.03682558 -0.019204453
0.009153254 -0.06676765 0.015186951 -0.025448063 0.08311808 0.0049703903 -0.11061435 0.004870073
-0.012044474 -0.091507755 -0.029415846 -0.04973023 -0.045863446 -0.014645145 -0.05010063 0.0043728775
-0.020460932 -0.056501683 -0.05079259 0.060788926 0.009071441 0.08243962 -0.0577047 -0.15061408
0.0040828893 0.11301424 0.012176309 0.016190533 -0.0026656794 -0.03667132 -0.014755191 0.12254514
-0.010601882 0.07335732 0.018251259 -0.029418824 -0.023932084 0.07463661 -0.15889317 -0.02636567
0.006592179 -0.053032197 0.0045130905 0.006006171 0.04495716 0.09294899 -0.0005043408 0.045798298
-0.07376304 -0.006376424 -0.041365057 0.021679608 -0.04373719 0.13222575 -0.07121669 0.01565505
-0.015314193 -0.07856852 0.058709484 -0.07443625 -0.020333773 -0.04720315 0.0025976526 -0.16115229
0.08532177 -0.12337816 -0.011278234 0.036525793 -0.025174528 -0.07582569 -0.17580728 -0.016129462
-0.0519336 -0.095615566 -0.05240733 0.013673385 0.0132218795 -0.08809745 0.0068497374 0.0014465813
-0.05739196 -0.15710643 0.016260047 -0.003908512 -0.124664 0.01790008 0.02846052 -0.08825321
0.08117343 0.011957633 -0.065646425 -0.1319295 -0.048865546 0.049002394 -0.011666021 0.00040656247
-0.027973248 0.10612899 -0.039735805 0.025576295 -0.058591444 0.041070763 -0.030184899 -0.09138643
0.0031467467 -0.022312196 0.05189878 -0.010213632 0.059047796 0.073266566 -0.04807622 -0.011045393
-0.059290033 -0.21148801 -0.043753866 -0.023339674 -0.03737173 -0.044521216 0.03727221 -0.19234778
-0.048865337 0.0846158 -0.027652174 -0.0075622797 -0.11837362 0.089920215 0.08576034 -0.06292704
0.0656126 0.004307172 -0.010182517 0.039044533 -0.025816614 0.011129669 -0.06090036 0.03789844
-0.0025279394 -0.024691138 0.008481044 0.003077021 -0.073020615 -0.07907364 0.073461294 0.031159712
0.015580687 -0.11986348 -0.011505247 -0.028850203 -0.06204883 -0.12136048 0.030163087 -0.026521059

linear_stack.3.weight f4 [2, 710]
00000000: 4625 c2bf 6a86 3b3f 9428 6ebf 4040 ad3c
00000010: cbb8 36bc 15cc 94be c264 143c fb19 3a3f
00000020: 89cd f03e 8528 c73c 47bd 1ebe 48f4 ac3c
00000030: 072c e0bb 6bc0 793f 058d 003f 91a9 a43b
00000040: 2c57 0ebc 7522 3c3c f089 2e3f 27e0 483f
00000050: 9a88 8a3d a83e 3d3c f72d cabe 859e cabe
00000060: 6be6 c63e f141 3d3f 12a3 8c3e ea0d 97bc
00000070: 3c82 3e3f 63c8 043e b460 d33b 1c05 8abf
00000080: 2e5e 58bf 7967 aebf 4490 99bf 755a 1f3f
00000090: a46a 14bd f4ee 843e 8a70 163f 9031 b0bc
000000a0: e201 1f3f 7163 87be 1ecb 8fbf 775a c23c
000000b0: 23c2 7cbf a4bc 54bf 05df 843b 8c9a 35be
000000c0: 9c0b 543c aeb3 853e 4ea7 193c 704c a63b
000000d0: aba0 9d3e 55ff ac3c fdde 85bf e876 62bf
000000e0: fd14 243e f61a 6b3b 0ca2 91bf 0180 4e3b
000000f0: 6fa7 443f cd4d a7bd aa2a e3bc c927 25bf
00000100: eaf9 313f 84b3 81bf d2ed e63b b5f2 d13e
00000110: ec56 273c ff18 f73b faef 6b3f 2507 063d
00000120: b041 a6be 1b4d 253f 4390 89bb d2b5 27bf
00000130: 8bca 2f3c 059c f8bb e935 573c 779f bd3c
00000140: 4f97 8abc aa9a 553f ae19 a4bc eee1 843c
00000150: 7673 e73e 5237 81bc 62cd 3abc 2a97 063f
00000160: f918 8bbe ed2a b33c 2b16 48bf a273 4d3c
00000170: 6174 8abc 9498 4fbd 94f4 babc 01e3 fd3e
00000180: 701a abbc 4458 fc3e 43d8 d2bf 309b f13d
00000190: 1366 4cbf ab6b bb3b 8c1d 313f 5528 79bf
000001a0: 81f7 d53e fbe9 95bf b798 293d 3317 d53a
000001b0: 6fe6 873e 158b 3a3e 5e83 75be 4f66 cbbf
000001c0: fdcb 203f 00d7 a83f cb08 79bc 706a e03c
000001d0: 3f36 663b 8ca2 29bd ab10 9abc dfd0 3d3e
000001e0: ad44 19bf 99f3 c1bb e26f 84be 82db b13e
000001f0: a7b2 b83e b854 c93e dd86 8cbf bc68 3bbf
00000200: 4ffb 16bc 42fb 253f c0cb 993a fe0c 783f
00000210: 84ee 733b 102e 693b 2074 0f3e d998 533e
00000220: 805d a7bc 6f74 7e3f b1f6 b13b fe2c f3bc
00000230: 495a 8d3e c986 943f 09da d9bd db2d 6e3c
00000240: b8e4 3ebc 11c9 43bc 7be4 1fbb f645 02bb
00000250: 5003 863e 5e4c 003f ceb1 b1bc fc6b 6f3f
00000260: 4459 263d cb0e 16bd 0a06 c23c e649 c53e
00000270: 17dd e3bb 4550 ba3e e724 4abf c3d5 d93a
00000280: ee82 933c f89b e2be 6e5d ad3e 7cfb cbbc
00000290: f0c5 d93e 1ece 9a3f fdd7 3c3f a9f4 4ebf
000002a0: b835 d93e 9044 77bf ef8c 623c ed06 f73e
000002b0: a0a0 963c 66ba f2bf 9399 76bf 7d80 96bf
000002c0: 5af1 0b3d 7941 0ebf aa13 3f3f f902 12bf
000002d0: 297b 30bc 6fa6 0d3f 9cb9 493e 7bd1 2cbc
000002e0: 9be6 433d c3a3 73bf 7fa6 8fbc 1378 e03e
000002f0: f70a e1be 566d cd3e 36bb 823f 3512 34bf
00000300: cf91 063f c4c0 ba3c 369b a2be 47ca 83bf
00000310: e0c4 123c 7fec 0d3f 13a0 12bd 83e3 14bf
00000320: 169c e83c 123f 853f 65ea 0c3d e4bf 7e3f
00000330: c41e 1fbc 3bd6 143f de70 e5bb 99bf 02bf
00000340: 7f7d efbb 8649 893c 6514 3c3f d04b cebc
00000350: 9aa3 94bf 7d8a ee3d 7b98 1bbb 55fb 4c3d
00000360: 86a1 00bf d21f aebf b0f9 e7bb 5902 233c
00000370: defd 0cbc fa5b b2be 7571 373f b3e2 3dbf
00000380: 1336 e63e 6ba3 633e 29fd 13bc 78db b3bb
00000390: 94d8 6cbf 1456 873f 2543 393f 6c73 34be
000003a0: 5c6d f73e 5858 c93e f8d0 78bf 67f9 2dbf
000003b0: 4e73 1b3c 563c fcbc ae38 89bb a44f 1dbd
000003c0: a64a f7ba 8cc5 b3bb 494f 8dbb e2a1 12bc
000003d0: adec 1cbc 7e6c 0ebe af26 133f d442 80bc
000003e0: 1138 b33a f3e0 aabe e242 c43e 9e90 a13c
000003f0: fe09 73ba da5d cbbe f684 263f 9143 95ba
-1.5167625 0.73251975 -0.9303067 0.0211488 -0.0111524565 -0.29061952 0.009057226 0.72695893
0.4703181 0.024311313 -0.15501891 0.021112576 -0.006841186 0.9755923 0.5021518 0.0050250967
-0.008687776 0.011482825 0.68179226 0.7846703 0.06764336 0.011550583 -0.39488193 -0.39574066
0.3884767 0.73928744 0.27468163 -0.018439252 0.7441747 0.12967066 0.006450737 -1.0782809
-0.84518707 -1.3625327 -1.1997151 0.622474 -0.036234513 0.25963557 0.5876547 -0.021508008
0.6211225 -0.26443055 -1.1233861 0.023724778 -0.9873373 -0.8310034 0.0040549063 -0.17734736
0.012942221 0.26113647 0.009378267 0.00507503 0.30786642 0.021117846 -1.0458676 -0.88462687
0.16023631 0.0035874224 -1.1377578 0.0031509402 0.76817983 -0.08169136 -0.027730305 -0.6451383
0.69521964 -1.0132909 0.0070473934 0.41005483 0.010213595 0.0075408216 0.9216305 0.032721657
-0.3247199 0.6457078 -0.0041981055 -0.6551181 0.010729442 -0.0075869584 0.013135412 0.023147328
-0.016917853 0.83439124 -0.020031776 0.016221013 0.45205277 -0.01577345 -0.011401506 0.5257441
-0.2716749 0.021871055 -0.78158826 0.012539776 -0.016901197 -0.05068262 -0.022821702 0.49587253
-0.02088663 0.4928609 -1.6472248 0.11797178 -0.7984325 0.005719622 0.6918571 -0.97327167
0.41790393 -1.171203 0.041405406 0.0016257524 0.26542994 0.18217118 -0.23975894 -1.5890597
0.6281126 1.3190613 -0.01519985 0.027394503 0.0035127548 -0.041414782 -0.018806776 0.18536709
-0.59870416 -0.0059189317 -0.2586661 0.34737784 0.360738 0.39322448 -1.0978657 -0.73206687
-0.00921519 0.64836514 0.0011733696 0.96894825 0.0037221024 0.0035580434 0.14009142 0.20663776
-0.020430326 0.99396414 0.0054310192 -0.02968454 0.27607945 1.1603633 -0.1063729 0.0145373
-0.0116512105 -0.011949793 -0.002439766 -0.0019878126 0.26174402 0.5011653 -0.02169123 0.93524146
0.040612474 -0.0366352 0.02368452 0.38532943 -0.006953846 0.36389366 -0.7896256 0.0016619492
0.018006768 -0.4425962 0.33860344 -0.02490019 0.42533827 1.2094152 0.7376707 -0.8084207
0.42423797 -0.96588993 0.0138275465 0.4824747 0.018387139 -1.8963134 -0.96328086 -1.1757962
0.034165718 -0.55568653 0.7463938 -0.57035786 -0.010771551 0.5533208 0.1969971 -0.010547991
0.047827344 -0.95171756 -0.017535446 0.4384161 -0.43953678 0.4012248 1.0213382 -0.7034028
0.52566236 0.022796996 -0.31759042 -1.0296105 0.0089580715 0.5543899 -0.03579719 -0.58159655
0.02839474 1.0409873 0.034403224 0.9951155 -0.009711925 0.5813939 -0.00700198 -0.51073605
-0.0073086615 0.016758692 0.7346862 -0.025182635 -1.1612427 0.11647508 -0.0023742008 0.050044376
-0.50246465 -1.3603461 -0.0070793256 0.00994929 -0.0086054485 -0.34835798 0.71657497 -0.7417404
0.4496313 0.22230308 -0.009032526 -0.005488809 -0.9251797 1.0573144 0.7236808 -0.17622155
0.48325622 0.39325213 -0.9719386 -0.6795868 0.00948794 -0.03079049 -0.004187665 -0.03840603
-0.0018866851 -0.005486196 -0.00431243 -0.008949729 -0.009577912 -0.13908574 0.574809 -0.015656866
0.0013673325 -0.33374748 0.38332278 0.01972228 -0.00092712033 -0.3972004 0.6504663 -0.0011387934

linear_stack.3.bias f4 [2]
00000000: fcda 373e 0b8d 4abe
0.1795463 -0.19780366
